hw2/model.pth (torch, 1932 bytes, 2 tensors)

fc.weight f4 [2, 50]
000000 6e 65 bc 3f c4 26 11 3f e4 04 8c be 90 a7 ba bd
       1.4718454 0.56699777 -0.2734748 -0.09113991
000010 46 49 1f be b6 2f 38 bf 77 ff 07 3e 28 a9 e6 3e
       -0.15555295 -0.719478 0.13281046 0.4505093
000020 46 18 f6 3f 5f 7e 80 3f 65 bc a1 3f fc 28 4b bf
       1.9226158 1.0038565 1.2635618 -0.7935941
000030 7a 07 5e 3e e9 a5 d7 be c3 bf 03 3f 97 47 4c bf
       0.2168254 -0.42118767 0.5146448 -0.7979674
000040 dd 5e 01 3f 41 26 84 bf bf 5e ec bd 38 ed d1 be
       0.50535375 -1.0324174 -0.11541509 -0.41001296
000050 5d 1d 25 bf df 86 69 3e e3 73 98 3f 79 db f2 3d
       -0.6449793 0.22805355 1.1910366 0.11858267
000060 30 db 62 3e ff f0 66 3d db 9d 72 be 6f 96 1a be
       0.22153926 0.056382176 -0.2369303 -0.15096448
000070 55 e1 c3 bf 24 2e 24 3f d0 f5 b2 3d c7 9d 07 3f
       -1.5303141 0.64132905 0.08738291 0.52975124
000080 03 d1 9e 3e 74 c0 24 bf a6 94 aa bf ba 4a af 3e
       0.31018838 -0.6435616 -1.3326614 0.342367
000090 59 21 f1 bf a6 0e b5 be 76 ef 86 be 1a db 3d bf
       -1.8838302 -0.35362738 -0.2635457 -0.7416245
0000a0 c3 00 31 3e c8 be 61 3f 4a 5b 58 bf 86 e1 9d bf
       0.17285447 0.88181734 -0.84514296 -1.2334449
0000b0 85 c9 84 3f a1 e9 44 bf 31 94 22 3c 3e 10 d8 3f
       1.0373999 -0.7691899 0.009923027 1.6879957
0000c0 5c 60 dc be 14 cb fa 3e ce 79 c0 bf fe 16 01 bf
       -0.43042266 0.4898306 -1.5037172 -0.5042571
0000d0 00 09 07 3e 87 97 ac 3e a9 44 29 3e f5 7c 4e 3f
       0.13187027 0.33709356 0.16530098 0.8065942
0000e0 c6 b3 20 be 82 65 bd be 6e f8 d7 bf b3 a2 9a bf
       -0.15693578 -0.36991507 -1.687269 -1.2080902
0000f0 a4 dc 90 bf b4 39 39 3f 44 c5 8c bd b9 84 c8 3e
       -1.1317334 0.72353673 -0.06873563 0.3916376
000100 93 65 ce be 26 a0 3f 3f 5d de 8e be 47 31 78 3f
       -0.4031187 0.7485374 -0.27904025 0.9695019
000110 50 27 0f bd 67 32 b9 3e 75 ff 34 3f d3 3f 4a be
       -0.0349496 0.36171266 0.70702296 -0.1975091
000120 e8 62 8e bf 03 e0 10 be 6b 67 f2 be 7f cb 6d be
       -1.1123934 -0.14147954 -0.47344527 -0.23222159
000130 0a 9e d0 3d 30 57 fc 3d 0d 12 cc 3f f5 da 29 bf
       0.101863936 0.12321317 1.5943009 -0.66349727
000140 13 ee 05 bd 20 0d 3f bf c8 fe 00 be 9f 24 1c 3f
       -0.03269775 -0.746294 -0.12597191 0.6099338
000150 81 b0 af 3f e6 ba 93 be 84 4e fe 3f 2c 4d b7 3e
       1.372574 -0.2885353 1.9867711 0.35801065
000160 48 9f 54 3e cf 79 3d 3f b7 f4 d6 bd 22 cb 74 bf
       0.20763886 0.7401399 -0.104958944 -0.95622456
000170 53 2c 7d 3f 4d 59 ba 3f 50 73 87 bf c3 c1 21 3f
       0.9889576 1.4558502 -1.0582066 0.6318628
000180 76 09 4e 3e c8 ee da bf 4f 7a e7 3e 5b 7e 36 bf
       0.20120797 -1.710412 0.45210502 -0.71286553

fc.bias f4 [2]
000000 9a 2e 4b 3f 08 df 56 bf
       0.79367983 -0.8393407
